Introduction-to-AI/W13/@Tien_NguyenHuynhMinh_18110377_baitap1/LunarLander-v2_trained_net_200neurons.pt (torch_old, 18966 bytes, 4 tensors)

weight f4 [200, 8]
-0.058538966 0.070275426 0.47621554 0.023670504 -0.61849153 -0.5735813 -0.16165039 -0.353954
-0.43964106 -0.23723811 -0.3572983 0.14774767 -0.08274008 -0.39358184 -0.11820878 -0.14932679
-0.17015725 -0.23010555 0.23611735 -0.4790177 -0.16537093 -0.115762375 -0.3326231 0.038877517
-0.18444103 0.19225278 0.21348268 -0.42297637 -0.5724341 -0.335176 -0.22711681 0.092689455
0.03110423 -0.07675402 0.41998696 -0.27187616 -0.581801 -0.259779 -0.055933982 -0.19764717
0.07974907 -0.28614372 0.10688219 -0.3440306 0.20100747 0.1839697 -0.3749986 0.06719581
0.09332678 0.092300914 0.37468246 -0.17816234 -0.05658354 -0.21858573 -0.27953434 -0.08758723
0.32156888 -0.091165386 0.1217349 0.6275116 0.12830308 0.13311486 0.191529 0.19654201
-0.18422528 -0.08509466 -0.30752197 -0.068170115 -0.3781494 0.22290415 0.36452675 -0.30156502
0.30587685 0.054409754 0.44262415 -0.23650199 0.27164513 0.11068308 -0.11260904 0.112701245
0.34229243 0.19241168 -0.101837255 0.4637395 -0.022563232 0.1533313 0.43833047 -0.11615044
0.03926167 -0.24964444 -0.0011691195 -0.5499035 -0.058812506 -0.14681774 -0.07100249 -0.08531278
-0.26778856 -0.10925629 -0.43746042 -0.36981896 0.3728504 -0.04006672 -0.0043418463 -0.05696151
-0.23750569 0.04055695 0.22302029 -0.42143306 -0.25357893 -0.16499986 0.041632008 -0.16564862
0.116553254 -0.1672124 0.118835814 -0.3946355 0.1935583 -0.21993689 -0.1845163 0.028682958
-0.032271348 0.38061634 0.2479716 0.04342101 -0.18279368 0.301449 0.20106022 -0.3276911
0.07468576 -0.26539317 -0.1548143 -0.3314293 -0.10078409 0.16970313 -0.27845722 -0.06437021
-0.11552185 -0.12246522 -0.018076636 -0.059157148 -0.3666374 0.2998213 0.1445185 -0.26502582
-0.0637056 0.058962133 -0.10041494 0.2523456 -0.09155763 -0.18765955 0.10969225 -0.13836914
-0.016594062 -0.3236526 -0.08553317 0.18623485 0.29098064 0.21743195 -0.08801759 0.14096259
-0.17544095 -0.0700682 0.19336383 -0.62419844 -6.51679e-05 -0.15089963 -0.07968823 0.24039952
0.0901557 -0.29595962 0.14257444 -0.4512311 0.11205254 0.36556837 -0.15642816 -0.110824734
-0.0035582297 0.29366243 -0.3069548 0.33510384 -0.08132946 0.33952573 0.14093581 0.24873781
0.13238475 0.1562128 -0.22998607 0.082465485 0.4432159 0.2561288 0.44394913 0.3242364
-0.04618399 -0.27831173 0.19727388 0.43709925 0.15993638 0.10595752 -0.2617891 0.007445384
-0.02510656 0.24762309 0.47804347 0.28693825 -0.2621083 -0.05587652 -0.106112346 0.067500435
-0.38461453 -0.19869918 -0.31192055 -0.38726944 -0.19647808 0.13691641 0.24246627 -0.2568862
0.015479246 -0.14591445 -0.27680486 0.12823655 -0.165808 -0.2452009 -0.28397804 -0.06430325
0.03194956 0.17095453 0.3810773 -0.2599964 -0.710903 -0.14820595 -0.33931798 0.25420383
-0.072408885 0.20714723 -0.23228776 0.092847414 0.39481592 0.3211808 0.28352013 0.37910718
0.21371232 0.17132244 0.016942814 -0.12183102 0.47599873 -0.11178294 -0.2553035 -0.13311115
0.055544183 0.15994832 0.49007323 -0.07268464 -0.05873293 -0.089779876 0.07678143 0.18894659
00000000: 8ec6 6fbd 90ec 8f3d 86d2 f33e a5e8 c13c
00000010: 7655 1ebf 39d6 12bf ae87 25be 7539 b5be
00000020: a218 e1be 8cee 72be ceef b6be 2a4b 173e
00000030: a273 a9bd 8f83 c9be 7217 f2bd 1fe9 18be
00000040: b43d 2ebe caa0 6bbe bfc8 713e cf41 f5be
00000050: ff56 29be d314 edbd 934d aabe 083e 1f3d
00000060: 1cde 3cbe eadd 443e 349b 5a3e 5c90 d8be
00000070: 0b8b 12bf 309c abbe 4f91 68be f8d3 bd3d
00000080: 4cce fe3c 3631 9dbd 8808 d73e 5a33 8bbe
00000090: e9f0 14bf c101 85be 081b 65bd 0564 4abe
000000a0: 7b53 a33d 6e81 92be 0de5 da3d c724 b0be
000000b0: e7d4 4d3e 8e62 3c3e d1ff bfbe f59d 893d
000000c0: 1c22 bf3d 4308 bd3d 61d6 bf3e 3070 36be
000000d0: 24c4 67bd f0d4 5fbe 201f 8fbe ef60 b3bd
000000e0: ada4 a43e ebb4 babd 2650 f93d 9aa4 203f
000000f0: e261 033e 434f 083e 2e20 443e 4f42 493e
00000100: 8da5 3cbe 1c46 aebd 8573 9dbe c69c 8bbd
00000110: cc9c c1be fc40 643e 40a3 ba3e bb66 9abe
00000120: e49b 9c3e c3dc 5e3d a29f e23e 942d 72be
00000130: 1215 8b3e d0ad e23d 929f e6bd e9cf e63d
00000140: f440 af3e 9107 453e 0d90 d0bd 446f ed3e
00000150: 87d6 b8bc e102 1d3e da6c e03e 48e0 edbd
00000160: d8d0 203d cba2 7fbe 243d 99ba 7ac6 0cbf
00000170: 62e5 70bd 6457 16be c169 91bd 78b8 aebd
00000180: 951b 89be c3c1 dfbd d0fa dfbe e958 bdbe
00000190: 3fe6 be3e 001d 24bd 0c46 8ebb 7950 69bd
000001a0: b134 73be 0b1f 263d 6e5f 643e 13c6 d7be
000001b0: 19d5 81be b9f5 28be 5386 2a3d cb9f 29be
000001c0: 79b3 ee3d ba39 2bbe 3160 f33d aa0d cabe
000001d0: 2634 463e 2337 61be d7f1 3cbe 86f8 ea3c
000001e0: f62e 04bd 25e0 c23e 44ec 7d3e 3bda 313d
000001f0: 442e 3bbe 8657 9a3e bbe2 4d3e 21c7 a7be
00000200: d9f4 983d 9de1 87be a487 1ebe 1ab1 a9be
00000210: e467 cebd a8c6 2d3e f291 8ebe 87d4 83bd
00000220: b896 ecbd 0ccf fabd 7415 94bc c44e 72bd
00000230: e6b7 bbbe 2d82 993e a8fc 133e 77b1 87be
00000240: 1578 82bd 4782 713d 59a6 cdbd 7133 813e
00000250: 9182 bbbd d329 40be 55a6 e03d a4b0 0dbe
00000260: 45f0 87bc cbb5 a5be 042c afbd 59b4 3e3e
00000270: 6afb 943e 7ba6 5e3e 9142 b4bd 7f58 103e
00000280: cba6 33be eb7f 8fbd 2b01 463e 78cb 1fbf
00000290: c0aa 88b8 6f85 1abe 9533 a3bd 4b2b 763e
000002a0: 8da3 b83d 0588 97be 09ff 113e c307 e7be
000002b0: cd7b e53d c72b bb3e b42e 20be 14f8 e2bd
000002c0: 3031 69bb ec5a 963e 2e29 9dbe bb92 ab3e
000002d0: 0f90 a6bd 51d6 ad3e 7a51 103e 20b5 7e3e
000002e0: de8f 073e 40f6 1f3e 7881 6bbe aae3 a83d
000002f0: 32ed e23e 5023 833e 4d4d e33e 5002 a63e
00000300: 6c2b 3dbd e07e 8ebe 2a02 4a3e 79cb df3e
00000310: 5dc6 233e 4200 d93d 3909 86be 68f8 f33b
00000320: 46ac cdbc e890 7d3e 1dc2 f43e 92e9 923e
00000330: 0f33 86be c7de 64bd 6e51 d9bd ab3d 8a3d
00000340: 32ec c4be cc77 4bbe 0db4 9fbe 2e48 c6be
00000350: 8d31 49be d133 0c3e 1449 783e 9786 83be
00000360: aa9c 7d3c 996a 15be 5eb9 8dbe 7150 033e
00000370: 93c9 29be f215 7bbe 9265 91be 6cb1 83bd
00000380: 8bdd 023d b40e 2f3e 901c c33e 401e 85be
00000390: bdfd 35bf 4dc3 17be 16bb adbe 0127 823e
000003a0: 1c4b 94bd 671e 543e d8dc 6dbe c926 be3d
000003b0: 5025 ca3e cf71 a43e 8d29 913e 561a c23e
000003c0: 67d7 5a3e 266f 2f3e a8cb 8a3c 8b82 f9bd
000003d0: 1bb6 f33e 74ee e4bd 24b7 82be 4a4e 08be
000003e0: 4c82 633d 7ec9 233e e1ea fa3e afdb 94bd
000003f0: f191 70bd 83de b7bd 953f 9d3d 377b 413e

bias f4 [200]
0.3112739 0.20692788 0.29502773 0.28115505 0.321853 0.30031547 0.09350158 0.3023625
-0.095533684 -0.101486206 0.3101166 0.103216544 0.20621437 0.052891474 0.13114302 -0.36914375
0.31187788 -0.11794376 -0.26373652 -0.10283827 -0.057090335 0.24247006 0.14999081 -0.030466538
-0.3425214 0.31261986 -0.0355955 -0.3343951 0.090409726 0.0001639754 0.14096834 0.29170585
0.33831167 -0.047006525 0.3500108 0.123641595 0.06613812 0.10951381 0.3191205 -0.008274747
-0.23365597 0.278962 0.2132183 0.03490804 0.21969296 0.10167524 0.22709501 -0.12629357
0.009043879 -0.15181793 -0.15854672 -0.04534836 -0.06765794 -0.06932378 0.1294328 0.22646397
-0.0736481 0.24580458 -0.07924088 0.15637723 0.083234355 0.18868417 0.14955428 -0.31342202
0.31286803 -0.12904143 0.3239587 -0.108665675 -0.37159383 0.07601056 -0.0988748 -0.029121723
0.11150644 0.07904193 -0.008621177 -0.3698544 -0.17089869 0.25678104 0.0108092725 0.2589124
0.00841221 -0.04332946 0.22000016 0.13936375 -0.10916757 -0.32767937 0.17700589 -0.38227105
-0.07148191 0.18815583 -0.11202342 0.06230402 0.24441074 -0.002621249 0.18462661 -0.09374855
0.37818795 0.13126883 -0.019601882 -0.09666376 -0.2940901 0.23416999 0.30289 0.08329833
-0.1032901 0.02615189 0.25238836 -0.14198078 0.06864599 -0.20761648 -0.18636952 0.29886976
0.03593363 0.018183902 -0.19964327 0.093109936 0.04332339 0.26603055 -0.43059865 0.19130833
0.12213977 -0.115405045 0.19944435 -0.28807408 0.036250863 0.07601811 -0.13467197 0.0872718
0.18123299 -0.18623067 -0.3529668 0.017201444 -0.16158774 -0.31773347 0.027647592 0.19526729
-0.15668468 0.14060582 -0.000786277 0.3030347 0.2504059 0.26756033 0.13039812 0.040924758
0.117759906 0.08040937 -0.07703634 0.23341574 0.18816338 -0.32395962 0.3728174 0.23214072
0.25218818 0.24720658 0.037436593 -0.13822392 0.076145776 -0.24874845 -0.36149833 0.3849184
-0.41676524 -0.19377296 0.1433101 0.3736075 0.044763535 -0.043164298 0.32635772 -0.42373776
-0.1524873 -0.3256236 -0.06651259 -0.29479575 0.32677695 0.08556272 -0.00439832 -0.25039136
-0.021272223 0.33801547 0.053927187 0.32476598 -0.082744576 0.22486567 -0.17887162 0.117498845
-0.02155087 0.28193423 -0.36615714 -0.27503026 -0.097984925 0.010407305 0.22198872 0.06517291
-0.23084182 0.19928078 0.35041422 0.3398547 -0.009026892 0.08104399 -0.39447471 0.3110577
00000000: 4b5f 9f3e e7e4 533e e00d 973e 8ef3 8f3e
00000010: ebc9 a43e f3c2 993e c27d bf3d 42cf 9a3e
00000020: 2aa7 c3bd 00d8 cfbd 9ac7 9e3e 3263 d33d
00000030: dc29 533e bba4 583d 5b4a 063e 6900 bdbe
00000040: 75ae 9f3e 7f8c f1bd 7908 87be df9c d2bd
00000050: 8ed7 69bd 124a 783e 3197 193e f694 f9bc
00000060: f75e afbe b60f a03e 96cc 11bd d635 abbe
00000070: bc28 b93d d0f0 2b39 015a 103e 785a 953e
00000080: 3037 ad3e ea89 40bd 9e34 b33e ce37 fd3d
00000090: 6c73 873d c748 e03d c363 a33e ce92 07bc
000000a0: 8343 6fbe 1bd4 8e3e e655 5a3e bcfb 0e3d
000000b0: 31f7 603e 1c3b d03d 988b 683e 1a53 01be
000000c0: c72c 143c 2976 1bbe 125a 22be 34bf 39bd
000000d0: 3f90 8abd a0f9 8dbd 088a 043e 2ce6 673e
000000e0: d1d4 96bd 32b4 7b3e 0b49 a2bd 5a21 203e
000000f0: c676 aa3d 6c36 413e c224 193e da78 a0be
00000100: 3d30 a03e 7023 04be eadd a53e 1c8c debd
00000110: 8c41 bebe 6dab 9b3d df7e cabd ae90 eebc
00000120: 7d5d e43d bce0 a13d d63f 0dbc 8e5d bdbe
00000130: 1100 2fbe ce78 833e 6019 313c 2b90 843e
00000140: 5ed3 093c 3b7a 31bd b947 613e 5fb5 0e3e
00000150: 3f93 dfbd 97c5 a7be 0841 353e 08b9 c3be
00000160: 1c65 92bd ecab 403e 896c e5bd 8032 7f3d
00000170: cf46 7a3e 43c9 2bbb c20e 3d3e 3dff bfbd
00000180: daa1 c13e 566b 063e 2094 a0bc a6f7 c5bd
00000190: fa92 96be 42ca 6f3e 6614 9b3e 5198 aa3d
000001a0: c389 d3bd 7d3c d63c 0c39 813e 6963 11be
000001b0: 4596 8c3d 6a99 54be a7d7 3ebe 7505 993e
000001c0: 242f 133d 68f6 943c 496f 4cbe 6cb0 be3d
000001d0: de73 313d 2835 883e 6d77 dcbe 55e6 433e
000001e0: 6a24 fa3d 7b59 ecbd 243b 4c3e 727e 93be
000001f0: c97b 143d 62af 9b3d 73e7 09be 8fbb b23d
00000200: 2495 393e 41b3 3ebe 10b8 b4be 0bea 8c3c
00000210: 4277 25be f6ad a2be 347d e23c 26f4 473e
00000220: f371 20be f9fa 0f3e 281e 4eba 5d27 9b3e
00000230: 3435 803e abfd 883e 1687 053e b8a0 273d
00000240: 1b2c f13d abad a43d 3bc5 9dbd 8904 6f3e
00000250: e7ad 403e 09de a5be ece1 be3e 4cb6 6d3e
00000260: cf1e 813e b923 7d3e 1d57 193d 928a 0dbe
00000270: 51f2 9b3d eab7 7ebe 4f16 b9be 0614 c53e
00000280: 4162 d5be 6b6c 46be e2bf 123e 7b49 bf3e
00000290: f859 373d 0ccd 30bd 5c18 a73e 28f4 d8be
000002a0: a125 1cbe 23b8 a6be c137 88bd 78ef 96be
000002b0: 4f4f a73e 823b af3d c81f 90bb 4c33 80be
000002c0: 1643 aebc 5d10 ad3e c1e2 5c3d ba47 a63e
000002d0: fd75 a9bd 3043 663e 1f2a 37be 3ca3 f03d
000002e0: 738b b0bc af59 903e f378 bbbe c4d0 8cbe
000002f0: 52ac c8bd 6783 2a3c 0351 633e 6079 853d
00000300: cc61 6cbe 4310 4c3e 7e69 b33e 6f01 ae3e
00000310: 87e5 13bc 64fa a53d 97f8 c9be f442 9f3e

weight f4 [4, 200]
-0.061185047 -0.09298812 -0.14033568 0.03837031 -0.025969418 -0.16484854 0.03824226 0.17679562
-0.12200571 -0.19194262 0.2368225 -0.27642667 -0.16798423 -0.024324106 -0.20459647 0.0267316
-0.22540484 -0.104582034 -0.05714872 -0.10309556 -0.187745 -0.21347754 0.0984704 0.17055477
-0.054724928 0.16133296 -0.16056651 -0.04468313 -0.04811405 0.0804576 0.018514466 0.07076935
0.12607585 0.038476635 0.119102545 -0.21646976 0.032286283 -0.19590607 0.13210145 -0.071032405
0.10706083 -0.109516226 -0.03865423 -0.1801373 0.0578512 -0.11553709 -0.037048653 0.036716644
-0.011255794 0.021179257 -0.02150156 -0.028038124 0.056400273 -0.029966576 -0.12918092 0.1338444
-0.011541043 0.09043425 0.059302803 0.082938634 -0.04290093 0.06806011 0.1724152 0.012285608
0.21525896 0.019150104 0.20918602 0.076360494 0.14717905 -0.074165165 0.022995923 0.07721992
-0.047403622 0.004531674 -0.11206301 -0.101081654 0.15586448 0.06655029 -0.1585798 0.14957388
0.024490861 -0.08360095 0.11752516 0.16330853 0.11480096 -0.013953567 0.026260722 -0.059624102
-0.098086804 -0.103103615 0.017469909 0.08904547 0.18481949 0.08854988 -0.08209516 0.19763882
-0.016456848 0.18922825 0.09103498 -0.054741986 -0.09249921 0.01223267 0.042282056 0.1670277
-0.055383123 0.09605528 -0.06601615 -0.07547512 0.118885964 -0.12555215 0.2454293 0.14800985
0.1714449 -0.17377855 0.14084922 -0.05999374 -0.12350716 -0.065543 0.0058820182 0.09148845
0.034380835 -0.05651907 0.08898559 -0.038197376 -0.15332776 -0.07477539 -0.071519814 0.21095844
0.10591226 0.083675504 -0.040530946 -0.010540977 -0.16313562 -0.04297064 0.028608592 -0.018487623
-0.25557694 -0.05762726 0.07358757 0.20166433 0.13975433 0.111899026 0.10100649 0.13093832
0.22014587 -0.07185855 0.19001992 0.11439039 -0.049340952 -0.0034337551 0.13314098 -0.07790059
-0.04756654 -0.17843471 -0.0751219 -0.15721914 -0.15425603 -0.052964117 -0.029838657 0.029786201
0.009721558 0.15196337 0.20884761 0.02051227 -0.08562967 -0.17577207 -0.019320505 -0.060508512
-0.08385064 0.16042426 0.08281728 0.011362345 0.18771839 0.023755724 -0.1354258 0.16829938
0.21781065 0.1716756 -0.18035975 0.18886438 -0.020621339 -0.0011052168 0.114415266 -0.075262316
0.21202412 -0.022541491 -0.076878555 0.046064626 0.18339302 -0.12957124 -0.11003777 0.09679456
0.08196671 -0.21879356 0.028097527 0.048144076 0.11344054 0.12189359 -0.02529483 -0.13129838
0.26234686 0.18292056 0.005750434 0.06298652 0.08027737 -0.066826776 0.05851683 -0.10697294
-0.005180936 -0.08155662 -0.0534858 -0.16599236 -0.15711252 0.07509578 -0.08563167 0.043166783
-0.116279505 -0.03320275 0.0827458 0.043000627 -0.12418259 -0.09698766 -0.036164876 -0.24646801
-0.022420341 0.09623551 0.06398941 0.06938078 0.21595514 -0.07642276 -0.012977728 0.0041626818
-0.04958857 -0.066582315 -0.047856566 -0.036796797 -0.08007324 -0.22487506 0.07734863 0.13070388
0.13593392 -0.2498082 -0.17837806 -0.1218524 -0.15922274 -0.16647752 0.0417053 0.045349613
0.027706228 -0.04110732 -0.09783811 -0.051380903 -0.21763271 0.02091307 -0.101430826 0.0072793695
00000000: 2c9d 7abd 8e70 bebd 28b4 0fbe 302a 1d3d
00000010: d1bd d4bc 0ece 28be eba3 1c3d e909 353e
00000020: 21de f9bd 9b8c 44be 9981 723e cc87 8dbe
00000030: 0f04 2cbe 5943 c7bc bd81 51be 3afc da3c
00000040: 87d0 66be 1b2f d6bd c714 6abd c423 d3bd
00000050: 3a40 40be db99 5abe d9aa c93d e9a5 2e3e
00000060: 3f27 60bd 7834 253e 8c6b 24be a805 37bd
00000070: 3d13 45bd f4c6 a43d a6ab 973c 85ef 903d
00000080: 071a 013e ad99 1d3d 09ec f33d 40aa 5dbe
00000090: 9f3e 043d 9a9b 48be 9a45 073e 7079 91bd
000000a0: b542 db3d 0b4a e0bd e653 1ebd ea75 38be
000000b0: 61f5 6c3d b69e ecbd 54c0 17bd 3164 163d
000000c0: 396a 38bc 1f80 ad3c 0a24 b0bc 35b0 e5bc
000000d0: f903 673d 777c f5bc 0148 04be 820e 093e
000000e0: a516 3dbc 9835 b93d 7fe7 723d bbdb a93d
000000f0: e3b8 2fbd 1963 8b3d 9c8d 303e 9349 493c
00000100: d86c 5c3e aee0 9c3c dc34 563e e462 9c3d
00000110: 1bb6 163e e8e3 97bd f261 bc3c 7a25 9e3d
00000120: 4d2a 42bd 707e 943b 4b81 e5bd e603 cfbd
00000130: f09a 1f3e 854b 883d be62 22be e529 193e
00000140: 0fa1 c83c fa36 abbd 08b1 f03d 5a3a 273e
00000150: c41c eb3d 809d 64bc ba20 d73c 6738 74bd
00000160: bce1 c8bd fd27 d3bd 0e1d 8f3c 795d b63d
00000170: 5241 3d3e a459 b53d 8221 a8bd d561 4a3e
00000180: 83d0 86bc 0dc5 413e 8c70 ba3d 2239 60bd
00000190: 3a70 bdbd 896b 483c f32f 2d3d 4f09 2b3e
000001a0: 6ad9 62bd a1b8 c43d 7a33 87bd b392 9abd
000001b0: 7c7a f33d be90 00be d251 7b3e e58f 173e
000001c0: 408f 2f3e 01f3 31be c73a 103e ffbb 75bd
000001d0: 52f1 fcbd 693b 86bd f2bd c03b 4c5e bb3d
000001e0: ebd2 0c3d 8a80 67bd 143e b63d da74 1cbd
000001f0: f401 1dbe d723 99bd fb78 92bd 7d05 583e
00000200: 87e8 d83d 105e ab3d c703 26bd 10b4 2cbc
00000210: 060d 27be fb01 30bd 915c ea3c 5b73 97bc
00000220: fbda 82be 900a 6cbd 14b5 963d 1881 4e3e
00000230: c21b 0f3e 512b e53d 7edc ce3d b214 063e
00000240: eb6d 613e 932a 93bd 9594 423e 8245 ea3d
00000250: bd19 4abd da08 61bb 1c56 083e 588a 9fbd
00000260: 22d5 42bd 97b7 36be 83d9 99bd 0efe 20be
00000270: 4bf5 1dbe e7f0 58bd 3370 f4bc 3102 f43c
00000280: 2b47 1f3c 499c 1b3e 26dc 553e 5909 a83c
00000290: 9c5e afbd 98fd 33be 0946 9ebc c6d7 77bd
000002a0: e2b9 abbd 4246 243e 1b9c a93d 2129 3a3c
000002b0: 4039 403e 5d9b c23c 10ad 0abe ac56 2c3e
000002c0: c109 5f3e bacb 2f3e 3ab0 38be aa65 413e
000002d0: 15ee a8bc ecdc 90ba 8d52 ea3d 2123 9abd
000002e0: da1c 593e efa8 b8bc 8172 9dbd 43ae 3c3d
000002f0: 61cb 3b3e 53ae 04be 7b5b e1bd 3a3c c63d
00000300: 2ade a73d 6b0b 60be c92c e63c b932 453d
00000310: 8453 e83d 59a3 f93d 1a37 cfbc 1573 06be
00000320: 5452 863e 874f 3b3e 236e bc3b 14ff 803d
00000330: 7668 a43d 7adc 88bd 58af 6f3d a114 dbbd
00000340: d7c4 a9bb 2807 a7bd ed13 5bbd e7f9 29be
00000350: 1be2 20be d1cb 993d a85f afbd a7cf 303d
00000360: f323 eebd 9bff 07bd a176 a93d 6d21 303d
00000370: 7153 febd 77a1 c6bd 9f21 14bd 1c62 7cbe
00000380: ddaa b7bc 2017 c53d e10c 833d 8317 8e3d
00000390: 5823 5d3e 8983 9cbd 89a0 54bc 1b67 883b
000003a0: 621d 4bbd 4f5c 88bd 3f05 44bd 3db8 16bd
000003b0: 70fd a3bd a645 66be f568 9e3d 3dd7 053e
000003c0: 4332 0b3e b9cd 7fbe bda8 36be c08d f9bd
000003d0: 490b 23be 1579 2abe 2dd3 2a3d 84c0 393d
000003e0: 2cf8 e23c 2660 28bd 595f c8bd c874 52bd
000003f0: 1cdb 5ebe e351 ab3c f7ba cfbd c787 ee3b

bias f4 [4]
-0.0059907977 -0.094667494 0.08480057 -0.08144359
00000000: 744e c4bb 08e1 c1bd ecab ad3d e6cb a6bd
